…
{"harness_name": "VLMEvalKit", "github_repo": "open-compass/VLMEvalKit", "issue_title": "\u8bc4\u6d4bInternVL2-1B\u62a5\u9519\uff1a got multiple values for keyword argument 'return_dict'", "issue_body": "# \u5c1d\u8bd5\u8bc4\u6d4bInternVL2-1B\u65f6\u62a5\u9519\r\n\r\n## \u8fd9\u662f\u8bc4\u6d4b\u8fd0\u884c\u7684\u547d\u4ee4\r\n`python run.py --data MathVision_MINI --model InternVL2-1B`\r\n\u6362\u6210 2B\u7684its work\uff0c\u53ef\u80fd\u662f\u56e0\u4e3a1B\u7684\u57fa\u5ea7\u662fqwen2\u5bfc\u81f4\u7684\u95ee\u9898\r\n`python run.py --data MathVision_MINI --model InternVL2-2B`\r\n\r\n## \u8fd9\u662f\u62a5\u9519\u4fe1\u606f\uff1a\r\n```bash\r\n[2024-11-11 15:00:51] ERROR - run.py: main - 284: Model InternVL2-1B x Dataset MathVision_MINI combination failed: Qwen2ForCausalLM(\r\n  (model): Qwen2Model(\r\n    (embed_tokens): Embedding(151655, 896)\r\n    (layers): ModuleList(\r\n      (0-23): 24 x Qwen2DecoderLayer(\r\n        (self_attn): Qwen2FlashAttention2(\r\n          (q_proj): Linear(in_features=896, out_features=896, bias=True)\r\n          (k_proj): Linear(in_features=896, out_features=128, bias=True)\r\n          (v_proj): Linear(in_features=896, out_features=128, bias=True)\r\n          (o_proj): Linear(in_features=896, out_features=896, bias=False)\r\n          (rotary_emb): Qwen2RotaryEmbedding()\r\n        )\r\n        (mlp): Qwen2MLP(\r\n          (gate_proj): Linear(in_features=896, out_features=4864, bias=False)\r\n          (up_proj): Linear(in_features=896, out_features=4864, bias=False)\r\n          (down_proj): Linear(in_features=4864, out_features=896, bias=False)\r\n          (act_fn): SiLU()\r\n        )\r\n        (input_layernorm): Qwen2RMSNorm((896,), eps=1e-06)\r\n        (post_attention_layernorm): Qwen2RMSNorm((896,), eps=1e-06)\r\n      )\r\n    )\r\n    (norm): Qwen2RMSNorm((896,), eps=1e-06)\r\n    (rotary_emb): Qwen2RotaryEmbedding()\r\n  )\r\n  (lm_head): Linear(in_features=896, out_features=151655, bias=False)\r\n) got multiple values for keyword argument 'return_dict', skipping this combination.\r\nTraceback (most recent call last):\r\n  File \"/home/li/work/projects/githubProjects/VLMEvalKit/run.py\", line 184, in main\r\n    model = infer_data_job(\r\n  File \"/home/li/work/projects/githubProjects/VLMEvalKit/vlmeval/inference.py\", line 164, in infer_
…
el.generate(\r\n  File \"/home/li/anaconda3/envs/eval/lib/python3.10/site-packages/torch/utils/_contextlib.py\", line 116, in decorate_context\r\n    return func(*args, **kwargs)\r\n  File \"/home/li/anaconda3/envs/eval/lib/python3.10/site-packages/transformers/generation/utils.py\", line 2215, in generate\r\n    result = self._sample(\r\n  File \"/home/li/anaconda3/envs/eval/lib/python3.10/site-packages/transformers/generation/utils.py\", line 3206, in _sample\r\n    outputs = self(**model_inputs, return_dict=True)\r\nTypeError: Qwen2ForCausalLM(\r\n  (model): Qwen2Model(\r\n    (embed_tokens): Embedding(151655, 896)\r\n    (layers): ModuleList(\r\n      (0-23): 24 x Qwen2DecoderLayer(\r\n        (self_attn): Qwen2FlashAttention2(\r\n          (q_proj): Linear(in_features=896, out_features=896, bias=True)\r\n          (k_proj): Linear(in_features=896, out_features=128, bias=True)\r\n          (v_proj): Linear(in_features=896, out_features=128, bias=True)\r\n          (o_proj): Linear(in_features=896, out_features=896, bias=False)\r\n          (rotary_emb): Qwen2RotaryEmbedding()\r\n        )\r\n        (mlp): Qwen2MLP(\r\n          (gate_proj): Linear(in_features=896, out_features=4864, bias=False)\r\n          (up_proj): Linear(in_features=896, out_features=4864, bias=False)\r\n          (down_proj): Linear(in_features=4864, out_features=896, bias=False)\r\n          (act_fn): SiLU()\r\n        )\r\n        (input_layernorm): Qwen2RMSNorm((896,), eps=1e-06)\r\n        (post_attention_layernorm): Qwen2RMSNorm((896,), eps=1e-06)\r\n      )\r\n    )\r\n    (norm): Qwen2RMSNorm((896,), eps=1e-06)\r\n    (rotary_emb): Qwen2RotaryEmbedding()\r\n  )\r\n  (lm_head): Linear(in_features=896, out_features=151655, bias=False)\r\n) got multiple values for keyword argument 'return_dict'\r\n```\r\n\u53ef\u80fd\u4e0eQwen2ForCausalLM\u8fd9\u4e2a\u6709\u5173\uff1f\r\n## \u5982\u4f55\u590d\u73b0\r\n\u65b0\u5efa\u4e00\u4e2ademo.py \uff0c\u8fd0\u884c\u5982\u4e0b\u4ee3\u7801\u5373\u53ef\u590d\u73b0\r\n```python\r\nfrom vlmeval.config import supported_VLM\r\nmodel = supported_VLM[
…
